…
    "  def on_test_batch_end(self, batch, logs=None):\n",
    "    print('Evaluacion: batch {} termina en {}'.format(batch, datetime.datetime.now().time()))"
   ]
  },
  {
   "cell_type": "code",
   "execution_count": 8,
   "metadata": {},
   "outputs": [
    {
     "name": "stdout",
     "output_type": "stream",
     "text": [
      "Model: \"sequential\"\n",
      "_________________________________________________________________\n",
      "Layer (type)                 Output Shape              Param #   \n",
      "=================================================================\n",
      "conv2d (Conv2D)              (None, 100, 100, 32)      320       \n",
      "_________________________________________________________________\n",
      "conv2d_1 (Conv2D)            (None, 100, 100, 64)      18496     \n",
      "_________________________________________________________________\n",
      "max_pooling2d (MaxPooling2D) (None, 50, 50, 64)        0         \n",
      "_________________________________________________________________\n",
      "conv2d_2 (Conv2D)            (None, 50, 50, 64)        36928     \n",
      "_________________________________________________________________\n",
      "conv2d_3 (Conv2D)            (None, 50, 50, 128)       73856     \n",
      "_________________________________________________________________\n",
      "max_pooling2d_1 (MaxPooling2 (None, 25, 25, 128)       0         \n",
      "_________________________________________________________________\n",
      "conv2d_4 (Conv2D)            (None, 25, 25, 96)        110688    \n",
      "_________________________________________________________________\n",
      "conv2d_5 (Conv2D)            (None, 25, 25, 192)       166080    \n",
      "_________________________________________________________________\n",
      "max_pooling2d_2 (MaxPooling2 (None, 13, 13, 192)       0         \n",
      "_________________________________________________________________\n",
      "conv2d_6 (Conv2D)            (None, 13, 13, 128)       221312    \n",
      "_________________________________________________________________\n",
      "conv2d_7 (Conv2D)            (None, 13, 13, 256)       295168    \n",
      "_________________________________________________________________\n",
      "max_pooling2d_3 (MaxPooling2 (None, 7, 7, 256)         0         \n",
      "_________________________________________________________________\n",
      "conv2d_8 (Conv2D)            (None, 7, 7, 160)         368800    \n",
      "_________________________________________________________________\n",
      "conv2d_9 (Conv2D)            (None, 7, 7, 320)         461120    \n",
      "_________________________________________________________________\n",
      "average_pooling2d (AveragePo (None, 1, 1, 320)         0         \n",
      "_________________________________________________________________\n",
      "dropout (Dropout)            (None, 1, 1, 320)         0         \n",
      "_________________________________________________________________\n",
      "dense (Dense)                (None, 1, 1, 10575)       3394575   \n",
      "_________________________________________________________________\n",
      "flatten (Flatten)            (None, 10575)             0         \n",
      "=================================================================\n",
      "Total params: 5,147,343\n",
      "Trainable params: 5,147,343\n",
      "Non-trainable params: 0\n",
      "_________________________________________________________________\n",
      "690839\n",
      "Epoch 1/10\n",
      "1380/1381 [============================>.] - ETA: 6s - loss: 8.6090 - accuracy: 0.0037 \n",
…
